==========================================
SLURM_JOB_ID = 795860
SLURM_NODELIST = gnode038
SLURM_JOB_GPUS = 2
==========================================
Number of training examples : 40000
Number of test examples : 10000
Average article length : 786.3666
Average highlight length : 57.434425
[('<PAD>', 0), ('<UNK>', 1), ('<SOS>', 2), ('<EOS>', 3), ('by', 4), ('.', 5), ('associated', 6), ('press', 7), ('published', 8), ('14', 9)]
113899
Encoder(
  (embedding): Embedding(113899, 100)
  (bi_lstm): LSTM(100, 200, batch_first=True, bidirectional=True)
  (fc): Linear(in_features=400, out_features=200, bias=True)
  (output_layer): Linear(in_features=200, out_features=113899, bias=True)
)
Attention(
  (fc): Linear(in_features=200, out_features=200, bias=False)
  (embed_fc): Linear(in_features=100, out_features=200, bias=False)
  (hiddento1): Linear(in_features=200, out_features=1, bias=False)
  (embedsto1): Linear(in_features=100, out_features=1, bias=False)
)
AttentionDecoder(
  (encoder): Encoder(
    (embedding): Embedding(113899, 100)
    (bi_lstm): LSTM(100, 200, batch_first=True, bidirectional=True)
    (fc): Linear(in_features=400, out_features=200, bias=True)
    (output_layer): Linear(in_features=200, out_features=113899, bias=True)
  )
  (dec_lstm): LSTM(100, 200, batch_first=True)
  (attention): Attention(
    (fc): Linear(in_features=200, out_features=200, bias=False)
    (embed_fc): Linear(in_features=100, out_features=200, bias=False)
    (hiddento1): Linear(in_features=200, out_features=1, bias=False)
    (embedsto1): Linear(in_features=100, out_features=1, bias=False)
  )
  (embedding): Embedding(113899, 100)
  (output_layer): Linear(in_features=400, out_features=113899, bias=True)
)

  0%|          | 0/20000 [00:00<?, ?it/s]
  0%|          | 1/20000 [00:02<11:21:36,  2.04s/it]
  0%|          | 2/20000 [00:03<10:05:08,  1.82s/it]
  0%|          | 3/20000 [00:05<9:41:22,  1.74s/it] 
  0%|          | 4/20000 [00:06<9:25:04,  1.70s/it]
  0%|          | 5/20000 [00:08<9:19:41,  1.68s/it]
  0%|          | 6/20000 [00:10<9:15:30,  1.67s/it]
…
